…
[ INFO : 2025-09-28 18:41:18,109 ] - <== Model ==>
[ INFO : 2025-09-28 18:41:18,123 ] - <== Model ==>
[ INFO : 2025-09-28 18:41:18,173 ] - <== Model ==>
[ INFO : 2025-09-28 18:41:20,168 ] - Train model from scratch ...
[ INFO : 2025-09-28 18:41:20,190 ] - start_epoch: 1
[ INFO : 2025-09-28 18:41:20,222 ] - Train model from scratch ...
[ INFO : 2025-09-28 18:41:20,244 ] - start_epoch: 1
[ INFO : 2025-09-28 18:41:20,313 ] - speaker_model size: 95631530
[ INFO : 2025-09-28 18:41:20,313 ] - Train model from scratch ...
[ INFO : 2025-09-28 18:41:20,338 ] - SSL_BACKEND_MHFA(
[ INFO : 2025-09-28 18:41:20,338 ] -   (cmp_linear_k): Linear(in_features=768, out_features=128, bias=True)
[ INFO : 2025-09-28 18:41:20,338 ] -   (cmp_linear_v): Linear(in_features=768, out_features=128, bias=True)
[ INFO : 2025-09-28 18:41:20,338 ] -   (att_head): Linear(in_features=128, out_features=32, bias=True)
[ INFO : 2025-09-28 18:41:20,338 ] -   (pooling_fc): Linear(in_features=4096, out_features=256, bias=True)
[ INFO : 2025-09-28 18:41:20,338 ] -   (frontend): HuggingfaceFrontend(
[ INFO : 2025-09-28 18:41:20,338 ] -     (upstream): Wav2Vec2Model(
[ INFO : 2025-09-28 18:41:20,339 ] -       (feature_extractor): FeatureExtractor(
[ INFO : 2025-09-28 18:41:20,339 ] -         (conv_layers): ModuleList(
[ INFO : 2025-09-28 18:41:20,339 ] -           (0): ConvLayerBlock(
[ INFO : 2025-09-28 18:41:20,339 ] -             (layer_norm): GroupNorm(512, 512, eps=1e-05, affine=True)
[ INFO : 2025-09-28 18:41:20,339 ] -             (conv): Conv1d(1, 512, kernel_size=(10,), stride=(5,), bias=False)
[ INFO : 2025-09-28 18:41:20,339 ] -           )
[ INFO : 2025-09-28 18:41:20,339 ] -           (1-4): 4 x ConvLayerBlock(
[ INFO : 2025-09-28 18:41:20,339 ] -             (conv): Conv1d(512, 512, kernel_size=(3,), stride=(2,), bias=False)
[ INFO : 2025-09-28 18:41:20,339 ] -           )
[ INFO : 2025-09-28 18:41:20,339 ] -           (5-6): 2 x ConvLayerBlock(
[ INFO : 2025-09-28 18:41:20,339 ] -             (conv): Conv1d(512, 512, kernel_size=(2,), stride=(2,), bias=False)
[ INFO : 2025-09-28 18:41:20,339 ] -           )
[ INFO : 2025-09-28 18:41:20,339 ] -         )
[ INFO : 2025-09-28 18:41:20,339 ] -       )
[ INFO : 2025-09-28 18:41:20,339 ] -       (encoder): Encoder(
[ INFO : 2025-09-28 18:41:20,339 ] -         (feature_projection): FeatureProjection(
[ INFO : 2025-09-28 18:41:20,340 ] -           (layer_norm): LayerNorm((512,), eps=1e-05, elementwise_affine=True)
[ INFO : 2025-09-28 18:41:20,340 ] -           (projection): Linear(in_features=512, out_features=768, bias=True)
[ INFO : 2025-09-28 18:41:20,340 ] -           (dropout): Dropout(p=0.1, inplace=False)
[ INFO : 2025-09-28 18:41:20,340 ] -         )
[ INFO : 2025-09-28 18:41:20,340 ] -         (transformer): Transformer(
[ INFO : 2025-09-28 18:41:20,340 ] -           (pos_conv_embed): ConvolutionalPositionalEmbedding(
[ INFO : 2025-09-28 18:41:20,340 ] -             (conv): ParametrizedConv1d(
[ INFO : 2025-09-28 18:41:20,340 ] -               768, 768, kernel_size=(128,), stride=(1,), padding=(64,), groups=16
[ INFO : 2025-09-28 18:41:20,340 ] -               (parametrizations): ModuleDict(
[ INFO : 2025-09-28 18:41:20,340 ] -                 (weight): ParametrizationList(
[ INFO : 2025-09-28 18:41:20,340 ] -                   (0): _WeightNorm()
[ INFO : 2025-09-28 18:41:20,340 ] -                 )
[ INFO : 2025-09-28 18:41:20,340 ] -               )
[ INFO : 2025-09-28 18:41:20,340 ] -             )
[ INFO : 2025-09-28 18:41:20,340 ] -           )
[ INFO : 2025-09-28 18:41:20,340 ] -           (layer_norm): LayerNorm((768,), eps=1e-05, elementwise_affine=True)
[ INFO : 2025-09-28 18:41:20,340 ] -           (dropout): Dropout(p=0.1, inplace=False)
[ INFO : 2025-09-28 18:41:20,341 ] -           (layers): ModuleList(
[ INFO : 2025-09-28 18:41:20,341 ] -             (0): EncoderLayer(
[ INFO : 2025-09-28 18:41:20,341 ] -               (attention): WavLMSelfAttention(
[ INFO : 2025-09-28 18:41:20,341 ] -                 (dropout): Dropout(p=0.1, inplace=False)
[ INFO : 2025-09-28 18:41:20,341 ] -                 (k_proj): Linear(in_features=768, out_features=768, bias=True)
[ INFO : 2025-09-28 18:41:20,341 ] -                 (v_proj): Linear(in_features=768, out_features=768, bias=True)
[ INFO : 2025-09-28 18:41:20,341 ] -                 (q_proj): Linear(in_features=768, out_features=768, bias=True)
[ INFO : 2025-09-28 18:41:20,341 ] -                 (out_proj): Linear(in_features=768, out_features=768, bias=True)
[ INFO : 2025-09-28 18:41:20,341 ] -                 (rel_attn_embed): Embedding(320, 12)
[ INFO : 2025-09-28 18:41:20,341 ] -                 (gru_rel_pos_linear): Linear(in_features=64, out_features=8, bias=True)
[ INFO : 2025-09-28 18:41:20,341 ] -               )
[ INFO : 2025-09-28 18:41:20,341 ] -               (dropout): Dropout(p=0.1, inplace=False)
[ INFO : 2025-09-28 18:41:20,341 ] -               (layer_norm): LayerNorm((768,), eps=1e-05, elementwise_affine=True)
[ INFO : 2025-09-28 18:41:20,341 ] -               (feed_forward): FeedForward(
[ INFO : 2025-09-28 18:41:20,341 ] -                 (intermediate_dense): Linear(in_features=768, out_features=3072, bias=True)
[ INFO : 2025-09-28 18:41:20,341 ] -                 (intermediate_dropout): Dropout(p=0.0, inplace=False)
[ INFO : 2025-09-28 18:41:20,342 ] -                 (output_dense): Linear(in_features=3072, out_features=768, bias=True)
[ INFO : 2025-09-28 18:41:20,342 ] -                 (output_dropout): Dropout(p=0.1, inplace=False)
[ INFO : 2025-09-28 18:41:20,342 ] -               )
[ INFO : 2025-09-28 18:41:20,342 ] -               (final_layer_norm): LayerNorm((768,), eps=1e-05, elementwise_affine=True)
[ INFO : 2025-09-28 18:41:20,342 ] -             )
[ INFO : 2025-09-28 18:41:20,342 ] -             (1-11): 11 x EncoderLayer(
[ INFO : 2025-09-28 18:41:20,342 ] -               (attention): WavLMSelfAttention(
[ INFO : 2025-09-28 18:41:20,342 ] -                 (dropout): Dropout(p=0.1, inplace=False)
[ INFO : 2025-09-28 18:41:20,342 ] -                 (k_proj): Linear(in_features=768, out_features=768, bias=True)
[ INFO : 2025-09-28 18:41:20,342 ] -                 (v_proj): Linear(in_features=768, out_features=768, bias=True)
[ INFO : 2025-09-28 18:41:20,342 ] -                 (q_proj): Linear(in_features=768, out_features=768, bias=True)
[ INFO : 2025-09-28 18:41:20,342 ] -                 (out_proj): Linear(in_features=768, out_features=768, bias=True)
[ INFO : 2025-09-28 18:41:20,342 ] -                 (gru_rel_pos_linear): Linear(in_features=64, out_features=8, bias=True)
[ INFO : 2025-09-28 18:41:20,342 ] -               )
[ INFO : 2025-09-28 18:41:20,342 ] -               (dropout): Dropout(p=0.1, inplace=False)
[ INFO : 2025-09-28 18:41:20,342 ] -               (layer_norm): LayerNorm((768,), eps=1e-05, elementwise_affine=True)
[ INFO : 2025-09-28 18:41:20,342 ] -               (feed_forward): FeedForward(
[ INFO : 2025-09-28 18:41:20,343 ] -                 (intermediate_dense): Linear(in_features=768, out_features=3072, bias=True)
[ INFO : 2025-09-28 18:41:20,343 ] -                 (intermediate_dropout): Dropout(p=0.0, inplace=False)
[ INFO : 2025-09-28 18:41:20,343 ] -                 (output_dense): Linear(in_features=3072, out_features=768, bias=True)
[ INFO : 2025-09-28 18:41:20,343 ] -                 (output_dropout): Dropout(p=0.1, inplace=False)
[ INFO : 2025-09-28 18:41:20,343 ] - Train model from scratch ...
[ INFO : 2025-09-28 18:41:20,343 ] -               )
[ INFO : 2025-09-28 18:41:20,343 ] -               (final_layer_norm): LayerNorm((768,), eps=1e-05, elementwise_affine=True)
[ INFO : 2025-09-28 18:41:20,343 ] -             )
[ INFO : 2025-09-28 18:41:20,343 ] -           )
[ INFO : 2025-09-28 18:41:20,343 ] -         )
[ INFO : 2025-09-28 18:41:20,343 ] -       )
[ INFO : 2025-09-28 18:41:20,343 ] -     )
[ INFO : 2025-09-28 18:41:20,343 ] -   )
[ INFO : 2025-09-28 18:41:20,343 ] -   (projection): ArcMarginProduct_intertopk_subcenter(in_features=256, out_features=5994, scale=32.0, margin=0.0, easy_margin=False,K=3, mp=0.06, k_top=5, do_lm=False)
…
